shift-predict-TEE/crypto_vol_model.onnx (onnx, 35494 bytes, 5 tensors)

0.weight f4 [128, 2]
0.42575893 -0.016880197 -0.28902653 0.41520184 0.16236869 -0.24145496 -0.07969231 -0.08522727
0.4673758 0.0028262567 0.5063356 -0.7548961 0.38896093 -0.7809847 0.1882483 0.4645662
-0.47943515 -0.29655415 0.5303601 0.45605403 -0.19871522 -0.1801175 -0.13659485 0.24425809
0.10326728 -0.1919409 -0.083863035 0.26599696 -0.52386945 -0.23639324 0.080261424 0.16080493
0.2307784 -0.21218081 0.17887028 0.013350579 0.18613914 -0.45843923 0.43673256 -0.046598915
0.56723124 0.43449056 0.19871716 -0.78674227 0.4919204 -0.595143 -0.057385016 0.38900316
-0.41257936 0.050858907 0.43514556 0.19126086 -0.6273886 -0.6607246 0.7052256 0.1942876
-0.059116784 -0.11519928 0.23945013 0.32033002 -0.61755604 0.1440001 -0.3897995 -0.33104536
-0.5922885 0.23273475 -0.120914586 -0.15882273 0.19904448 0.32001996 -0.18705896 -0.03850068
0.5610206 0.23858787 -0.36482072 0.37573957 -0.69803846 -0.50045246 -0.015471939 -0.4350086
-0.6343883 0.08500457 -0.21953365 -0.054401886 -0.3159266 0.3375581 -0.52473944 0.42963478
-0.65929353 -0.05010451 -0.2285578 0.48190257 0.09327217 -0.42516544 0.41887167 -0.4971194
-0.29034677 0.49418563 -0.24062732 -0.43177626 -0.8959479 0.49201927 -0.42580637 0.47705406
0.48234123 -0.46610576 0.036092486 0.24507144 0.57845813 -0.15013711 -0.7752675 -0.023129962
-0.27931896 0.51644576 0.32675365 -0.2989541 -0.02310598 0.47013563 0.3185365 0.25263864
0.08468853 -0.13252354 -0.52017903 0.257585 -0.40916926 -0.35665616 -0.57952154 -0.2285932
0.301867 0.3497726 -0.5522455 -0.2938592 0.18481688 -0.49666885 -0.6594389 0.16791275
0.36833072 0.6907411 -0.45637828 0.026456105 -0.011605874 0.4686275 -0.39928782 0.04438349
-0.19940813 0.70025593 -0.5628002 0.182893 0.49502847 -0.024257297 0.3965272 -0.18995433
-0.5576474 -0.060331948 0.31884843 -0.33071172 0.19322802 0.34843665 0.434089 0.21112797
-0.052326843 -0.55568326 -0.8008601 0.4637172 -0.38067463 -0.56981146 0.37945634 -0.5172087
-0.6054414 0.10875605 -0.6177084 0.087079935 0.112783276 0.07534605 -0.51140726 0.52845347
0.26640022 0.3772647 -0.30093303 -0.120700315 -0.39501503 0.32579497 -0.69189936 -0.64110726
-0.15105529 -0.0043903887 -0.7797007 0.42505231 0.34198862 -0.10694306 -0.17660937 0.06280952
0.20757553 -0.0998347 -0.6223245 0.33826506 0.460718 -0.21863234 -0.617463 0.005929484
-0.15281752 0.45949057 -0.5606204 -0.5466549 0.0901828 0.33669066 0.34915188 -0.7136035
0.30550894 0.31826162 0.043248355 -0.16297902 -0.6725562 0.20157419 0.36447585 0.12847511
0.4409521 -0.24248517 -0.67970556 -0.019999303 -0.018717224 -0.059402324 0.12997414 0.26689062
-0.47594354 -0.2859807 -0.20619655 -0.0027632946 -0.22245672 0.057811964 -0.67447144 -0.6378431
-0.29243165 -1.7357858 0.15511383 0.4314723 0.47433352 0.039874822 0.49436367 0.01190527
-0.40401712 0.31272474 -0.16433461 -0.29802087 0.42900592 -0.18335778 0.028581716 -0.23313108
0.27176034 -0.11957087 -0.8195168 0.10202964 0.19210881 0.42367962 -0.05225332 0.38750958
00000000: 13fd d93e 5748 8abc 49fb 93be 5695 d43e
00000010: fa43 263e f83f 77be b935 a3bd a38b aebd
00000020: e14b ef3e b838 393b 369f 013f df40 41bf
00000030: e325 c73e 9dee 47bf 2ac4 403e 9fdb ed3e
00000040: 8678 f5be f2d5 97be aec5 073f ea7f e93e
00000050: 017c 4bbe b970 38be 85df 0bbe cb1e 7a3e
00000060: cc7d d33d 288c 44be 62c0 abbd c130 883e
00000070: 4f1c 06bf 1211 72be 1a60 a43d 0caa 243e
00000080: 2c51 6c3e ed45 59be c529 373e 63bc 5a3c
00000090: 429b 3e3e 8cb8 eabe 699b df3e 81de 3ebd
000000a0: 1136 113f 8c75 de3e 837c 4b3e f167 49bf
000000b0: fedc fb3e 4b5b 18bf 8d0c 6bbd 6c2b c73e
000000c0: 9a3d d3be 6e51 503d 66cb de3e e3d9 433e
000000d0: 8a9c 20bf 3f25 29bf aa89 343f 54f3 463e
000000e0: 7124 72bd 9aed ebbd 6a32 753e 4c02 a43e
000000f0: 2718 1ebf c374 133e cd93 c7be c77e a9be
00000100: 38a0 17bf 0552 6e3e 11a2 f7bd 6da2 22be
00000110: 51d2 4b3e a8d9 a33e 628c 3fbe e4b2 1dbd
00000120: 0c9f 0f3f 6150 743e c8c9 babe f060 c03e
00000130: a6b2 32bf a71d 00bf 047e 7dbc 72b9 debe
00000140: 4667 22bf e016 ae3d 6ecd 60be 83d4 5ebd
00000150: 22c1 a1be 6ad4 ac3e 5355 06bf 17f9 db3e
00000160: 76c7 28bf 633a 4dbd 0e0b 6abe efbb f63e
00000170: 7b05 bf3d 49af d9be 5976 d63e 6f86 febe
00000180: 55a8 94be e605 fd3e 0267 76be c711 ddbe
00000190: d75c 65bf f3e9 fb3e 4b03 dabe 6e40 f43e
000001a0: 6ef5 f63e 6aa5 eebe b7d5 133d 02f4 7a3e
000001b0: d515 143f 8bbd 19be ee77 46bf 0c7b bdbc
000001c0: e502 8fbe ca35 043f 414c a73e 8310 99be
000001d0: c148 bdbc 9eb5 f03e 3717 a33e da59 813e
000001e0: 2e71 ad3d 40b4 07be 742a 05bf 2ee2 833e
000001f0: a27e d1be a39b b6be 865b 14bf 5614 6abe
00000200: 508e 9a3e 6515 b33e f65f 0dbf b774 96be
00000210: a340 3d3e 614b febe fdd0 28bf 52f1 2b3e
00000220: d895 bc3e 69d4 303f 6aaa e9be 79ba d83c
00000230: 9026 3ebc f2ef ef3e 746f ccbe 76cb 353d
00000240: a531 4cbe f943 333f ad13 10bf 4d48 3b3e
00000250: 5f74 fd3e 3db7 c6bc 9d05 cb3e 6383 42be
00000260: fbc1 0ebf a21e 77bd 1a40 a33e 0c53 a9be
00000270: 91dd 453e 4a66 b23e ea40 de3e ee31 583e
00000280: ac54 56bd 4241 0ebf 2b05 4dbf 576c ed3e
00000290: c9e7 c2be 2adf 11bf 1a48 c23e ca67 04bf
000002a0: 35fe 1abf 7ebb de3d 2322 1ebf f756 b23d
000002b0: ebfa e63d 084f 9a3d 96eb 02bf ba48 073f
000002c0: 9c65 883e d728 c13e e513 9abe ba31 f7bd
000002d0: 693f cabe 99ce a63e 5120 31bf 9b1f 24bf
000002e0: 3dae 1abe 40dd 8fbb 779a 47bf 75a0 d93e
000002f0: 2219 af3e f704 dbbd 16d9 34be 47a2 803d
00000300: ae8e 543e 2376 ccbd a950 1fbf 1431 ad3e
00000310: 3be3 eb3e 28e1 5fbe 0e12 1ebf 1e4c c23b
00000320: 327c 1cbe 5942 eb3e d284 0fbf 93f1 0bbf
00000330: c3b1 b83d b862 ac3e 09c4 b23e b8ae 36bf
00000340: ab6b 9c3e 30f3 a23e 3025 313d f9e3 26be
00000350: a52c 2cbf 7769 4e3e 949c ba3e fb8e 033e
00000360: 79c4 e13e 084e 78be 2f01 2ebf 94d5 a3bc
00000370: dd54 99bc da4f 73bd f117 053e e3a5 883e
00000380: dfae f3be 106c 92be 3025 53be 6418 35bb
00000390: b2cb 63be 3dcc 6c3d 29aa 2cbf af49 23bf
000003a0: 9ab9 95be 3b2e debf 29d6 1e3e f0e9 dc3e
000003b0: d8db f23e c853 233d 3c1d fd3e 520e 433c
000003c0: 55db cebe 751d a03e 5547 28be 3196 98be
000003d0: aaa6 db3e 24c2 3bbe 3424 ea3c eab9 6ebe
000003e0: 2c24 8b3e 93e1 f4bd dacb 51bf eaf4 d03d
000003f0: 2cb8 443e 89ec d83e 9407 56bd a867 c63e

0.bias f4 [128]
-0.8035515 0.64705163 0.00047034223 0.50073946 0.5559612 -0.064560354 -0.583017 -0.6723575
-0.09819879 -0.6715725 -0.5916601 -0.42884535 -0.28417075 0.4870828 -0.18114926 0.45079407
-0.74664265 -0.6603779 -0.17260428 0.25540206 -0.5097247 -0.9140971 -0.45820853 -0.7549183
-0.5968949 -0.8494159 -0.08150813 -0.53680134 0.22949135 -0.123730555 -0.015596946 -0.12268602
0.4920175 -0.53327453 -0.20585829 -0.3444901 -0.39999166 0.1324032 -0.3608968 -0.4555041
0.11536556 -0.16674878 0.10083163 -0.4482772 -0.08988439 0.06277473 0.030593418 0.16951226
0.25084114 0.08878149 -0.2526261 0.16682371 -0.48497248 0.28028694 0.42946157 -0.6816396
-0.52099496 0.72791123 -0.7326741 -0.45391378 0.19587332 -0.5509809 0.11799971 -0.35017058
0.054080337 -0.5177497 -0.14664501 -0.5229397 -0.6145221 0.5900935 0.35828358 -0.5538928
-0.7555822 -0.8970345 0.4480013 0.5711226 -0.16615838 -0.49490228 -0.5242971 -0.10957126
-0.06450386 0.2543696 -0.41564572 0.55322737 -0.8632267 0.13191457 -0.2597914 0.38112405
-0.0008899579 -0.11769153 -0.57865834 -0.36147076 -0.72647697 -0.5735359 -0.1760268 0.4424734
-0.09284949 0.18197936 -0.14963445 1.3095036 -0.51108295 -0.49482936 0.7023603 -0.38016012
-0.35401753 -0.19836034 -0.53073215 0.1037624 -0.47353658 -0.43087685 0.4489296 0.2022009
0.0035340132 1.7865354 -0.4040133 -0.5403975 0.8572669 -0.5981913 -0.0060865725 -0.5236554
0.16547124 -0.51125413 0.0045816526 -0.6057785 -0.28170624 0.22372103 0.6599266 -0.87166834
00000000: 8db5 4dbf 2da5 253f 4498 f639 7630 003f
00000010: 7953 0e3f 3838 84bd 9a40 15bf 9f1f 2cbf
00000020: 721c c9bd 2dec 2bbf 0977 17bf 9e91 dbbe
00000030: d47e 91be eb62 f93e 317f 39be 7bce e63e
00000040: f923 3fbf 870e 29bf 2dbf 30be 0fc4 823e
00000050: 517d 02bf 4402 6abf 4f9a eabe 5342 41bf
00000060: 1bce 18bf 5273 59bf bced a6bd d06b 09bf
00000070: c8ff 6a3e 7266 fdbd 558a 7fbc cf42 fbbd
00000080: b8e9 fb3e ae84 08bf 84cc 52be 0261 b0be
00000090: b5cb ccbe b494 073e 77c7 b8be d537 e9be
000000a0: c744 ec3d 31c0 2abe d080 ce3d 9784 e5be
000000b0: 4f15 b8bd 0a90 803d 0c9f fa3c 9f94 2d3e
000000c0: 406e 803e 12d3 b53d 3558 81be d6d3 2a3e
000000d0: 504e f8be c581 8f3e 63e2 db3e ef7f 2ebf
000000e0: ed5f 05bf 6458 3a3f 8890 3bbf 6367 e8be
000000f0: 0493 483e 160d 0dbf d5a9 f13d 8f49 b3be
00000100: 5883 5d3d 3f8b 04bf 1c2a 16be 60df 05bf
00000110: 5251 1dbf 5e10 173f f270 b73e ebcb 0dbf
00000120: d66d 41bf 0ea4 65bf 6d60 e53e 1735 123f
00000130: 6c25 2abe d563 fdbe 5638 06bf e666 e0bd
00000140: 9a1a 84bd bb3c 823e 84cf d4be 4fa0 0d3f
00000150: 6dfc 5cbf 9d14 073e 6103 85be b122 c33e
00000160: 104c 69ba 4208 f1bd f422 14bf b212 b9be
00000170: 65fa 39bf 40d3 12bf 5f40 34be e08b e23e
00000180: e027 bebd cc58 3a3e c639 19be d09d a73f
00000190: 55d6 02bf 465a fdbe e2cd 333f 59a4 c2be
000001a0: c941 b5be f91e 4bbe 10de 07bf 6281 d43d
000001b0: 6373 f2be e49b dcbe 1ada e53e c10d 4f3e
000001c0: e79a 673b 31ad e43f d5da cebe 7e57 0abf
000001d0: d875 5b3f 1123 19bf df71 c7bb 480e 06bf
000001e0: 4b71 293e 8de1 02bf b021 963b 4d14 1bbf
000001f0: cd3b 90be 2017 653e f3f0 283f a825 5fbf

2.weight f4 [64, 128]
0.080125004 0.017058961 0.07219322 0.06896258 0.060501743 0.04760198 0.0059309206 0.08478542
0.08376704 0.006837112 0.01931922 0.044343892 -0.08107183 0.034395054 0.08159989 -0.06729342
0.03324402 0.021633789 0.09854093 0.0051874886 -0.02058085 -0.07896679 0.090701506 -0.02027523
0.036340084 -0.023023149 -0.012003665 0.030207638 -0.053334974 0.053361643 0.08055796 0.08642069
-0.022156 -0.046627436 0.0047229035 0.075385876 0.057058584 0.055579454 -0.061436374 -0.032054774
-0.020684162 -0.0725066 0.058018636 -0.042462267 0.073381856 0.022246003 0.059789047 0.07357279
-0.07334452 -0.014805176 0.08575181 -0.023624577 0.02516238 0.006543001 0.0017267929 0.14666693
0.08318579 -0.022246312 -0.05677313 0.04344208 -0.06773107 0.004683582 0.052767802 -0.018345807
-0.06979155 -0.046177827 0.08612322 -0.03448167 0.047597803 -0.085789315 -0.017004635 -0.08656455
-0.034134556 0.01716087 0.03134784 0.028779114 0.006107489 -0.022672916 -0.03231754 -0.034834165
-0.021971144 0.023359526 -0.023035666 -0.056215525 -0.015025976 -0.0894435 0.07792088 -0.08766408
-0.0061871815 -0.020160913 -0.0016230607 -0.047242813 0.013604164 0.03149553 -0.024227658 0.008663502
0.07275484 0.03964897 -0.0003210744 -0.03601326 0.03401512 -0.04119726 -0.05994988 -0.024029093
-0.023205718 -0.02193386 -0.053537615 -0.02853123 -0.08239451 0.10839678 0.01788248 -0.05495741
-0.010072559 -0.3210288 0.005856254 -0.0115132965 -0.0009315138 -0.06635925 0.053358488 -0.02508284
0.03628663 -0.06511588 -0.04274984 -0.004368289 -0.07868472 -0.070485406 0.03426445 0.04780895
0.04740798 0.008847028 0.00034475548 -0.06743663 0.0063826567 0.09875899 0.072201364 0.06274499
-0.01113446 -0.08046582 0.028451018 -0.03711766 0.05905312 -0.016682357 0.08017224 0.044096697
-0.03263348 -0.0364831 0.011114021 0.057819907 0.018581007 -0.10344219 -0.035666354 -0.017506808
-0.02957677 0.013285017 0.020843776 0.05932212 0.018395927 0.041860115 -0.05655992 -0.010789214
0.010502991 0.035112657 0.013730851 0.04535535 -0.03265056 -0.024182865 0.0150127495 -0.013273054
-0.041099213 -0.07979973 0.06852224 -0.022235759 0.033562977 -0.016604705 -0.05217139 0.08712656
-0.034072947 -0.05857826 0.011914256 0.062064264 0.076401465 0.051763877 0.058069274 0.12071495
0.024295442 0.009328319 0.048013423 -0.079687685 -0.04780799 0.016131345 0.07036956 0.08541509
0.03046507 0.040037725 -0.0528881 -0.051301837 0.0029847047 -0.00052460853 -0.0072262865 -0.05385656
-0.08786524 0.033696372 -0.066869035 0.047262847 0.055695552 0.049013574 0.041342285 -0.0036918658
-0.061258167 0.08500967 0.012437092 0.0741709 0.047082175 0.01564307 0.07555949 0.039005622
0.018722499 0.023917167 -0.0710807 -0.003173584 -0.057551507 0.07125878 0.073777385 -0.04525856
-0.06161506 -0.047436997 -0.07476618 0.23483522 0.05806852 0.0568349 -0.041046076 -0.046285905
0.044441916 -0.058747783 -0.04282907 -0.072447665 -0.019329827 0.019976921 0.020108122 -0.024803357
0.019064346 -0.18483719 -0.012904608 -0.079122506 -0.10817846 -0.040927947 0.014674056 -0.05281318
0.07752633 -0.041395 -0.06257863 0.04455183 0.061432257 -0.048784487 0.0049707885 0.060271293
00000000: 9418 a43d 3cbf 8b3c 0ada 933d 413c 8d3d
00000010: add0 773d 4bfa 423d 2b58 c23b faa3 ad3d
00000020: 0e8e ab3d da09 e03b 5743 9e3c f1a1 353d
00000030: fd08 a6bd d4e1 0c3d d81d a73d 22d1 89bd
00000040: e22a 083d 5839 b13c d4cf c93d cffb a93b
00000050: 2c99 a8bc 57b9 a1bd b6c1 b93d 3d18 a6bc
00000060: 57d9 143d 0b9b bcbc 05ab 44bc 0276 f73c
00000070: c675 5abd bd91 5a3d 92fb a43d 55fd b03d
00000080: 8080 b5bc 69fc 3ebd 96c2 9a3b e963 9a3d
00000090: 43b6 693d 48a7 633d b5a4 7bbd de4b 03bd
000000a0: d571 a9bc 577e 94bd f3a4 6d3d eaec 2dbd
000000b0: 3a49 963d 403d b63c 5ce5 743d 55ad 963d
000000c0: a735 96bd 6991 72bc a59e af3d 5488 c1bc
000000d0: 5621 ce3c ac66 d63b 8e55 e23a db2f 163e
000000e0: 505d aa3d e63d b6bc f18a 68bd 53f0 313d
000000f0: 96b6 8abd bc78 993b 0d23 583d f249 96bc
00000100: dfee 8ebd f624 3dbd 5f61 b03d a73c 0dbd
00000110: eaf5 423d 4fb2 afbd 4e4d 8bbc c148 b1bd
00000120: add0 0bbd f494 8c3c 9866 003d 2dc2 eb3c
00000130: 5521 c83b 8dbc b9bc 665f 04bd 45ae 0ebd
00000140: d4fc b3bc 7a5c bf3c 4bb5 bcbc 4042 66bd
00000150: 832f 76bc 272e b7bd fb94 9f3d 3a89 b3bd
00000160: d7bd cabb 8028 a5bc e1bc d4ba ae81 41bd
00000170: 00e4 5e3c 7501 013d 1579 c6bc 5cf1 0d3c
00000180: 7d00 953d f566 223d e055 a8b9 a482 13bd
00000190: 7053 0b3d 75be 28bd 018e 75bd a9d8 c4bc
000001a0: eb19 bebc a3ae b3bc 424a 5bbd 53ba e9bc
000001b0: 74be a8bd 22ff dd3d 477e 923c 051b 61bd
000001c0: 6007 25bc e35d a4be d2e5 bf3b 44a2 3cbc
000001d0: d530 74ba 5ce7 87bd 6e8e 5a3d 877a cdbc
000001e0: 4aa1 143d 795b 85bd 751a 2fbd dd23 8fbb
000001f0: 7425 a1bd a75a 90bd e158 0c3d 51d3 433d
00000200: df2e 423d 20f3 103c 4cc0 b439 371c 8abd
00000210: 9b25 d13b 2742 ca3d 4fde 933d 7280 803d
00000220: 4f6d 36bc 44cb a4bd 1c12 e93c b008 18bd
00000230: afe1 713d 70a9 88bc 5831 a43d bd9e 343d
00000240: afaa 05bd 4e6f 15bd 9517 363c 91d4 6c3d
00000250: 3237 983c 80d9 d3bd e216 12bd 706a 8fbc
00000260: fb4a f2bc 66a9 593c 91c0 aa3c c0fb 723d
00000270: 0eb3 963c 8375 2b3d 60ab 67bd 3ec5 30bc
00000280: bd14 2c3c 4ad2 0f3d 5df7 603c 88c6 393d
00000290: 98bc 05bd 251b c6bc 09f8 753c 3977 59bc
000002a0: a657 28bd 0a6e a3bd 6355 8c3d c427 b6bc
000002b0: 5579 093d 9706 88bc abb1 55bd 696f b23d
000002c0: 1390 0bbd c2ef 6fbd 0334 433c 1937 7e3d
000002d0: 5f78 9c3d 5c06 543d 0cda 6d3d 6639 f73d
000002e0: 3c07 c73c ced5 183c b9a9 443d 4c33 a3bd
000002f0: 50d2 43bd e225 843c ea1d 903d 1bee ae3d
00000300: e291 f93c 99fe 233d 31a1 58bd e021 52bd
00000310: 099b 433b e285 09ba 7cca ecbb b298 5cbd
00000320: b1f2 b3bd 3505 0a3d a2f2 88bd b096 413d
00000330: 0521 643d 75c2 483d 8756 293d 3bf3 71bb
00000340: d8e9 7abd 8d19 ae3d f2c4 4b3c eae6 973d
00000350: 3dd9 403d e525 803c efbe 9a3d 5cc4 1f3d
00000360: ed5f 993c efed c33c c292 91bd e7fb 4fbb
00000370: 21bb 6bbd 20f0 913d 9918 973d 0a61 39bd
00000380: 1360 7cbd 4c4d 42bd 031f 99bd a578 703e
00000390: 42d9 6d3d b6cb 683d ee1f 28bd 4a96 3dbd
000003a0: ba08 363d 84a1 70bd 896d 2fbd 715f 94bd
000003b0: 9659 9ebc a4a6 a33c cab9 a43c 6930 cbbc
000003c0: d52c 9c3c f645 3dbe d96d 53bc fb0a a2bd
000003d0: ab8c ddbd 10a4 27bd 746b 703c a252 58bd
000003e0: 20c6 9e3d ce8d 29bd 3a29 80bd fb7b 363d
000003f0: 64a0 7b3d 3ed2 47bd ffe1 a23b 08df 763d

2.bias f4 [64]
0.089989096 -0.055503163 -0.17651916 -0.1859887 -0.022489972 -0.10433098 -0.17257464 -0.057630207
-0.46369034 -0.020077102 -0.010973459 -0.06811206 -0.031384833 -0.10093553 0.08387164 -0.0659775
0.0051367786 -0.10697526 -0.11721011 0.031854365 -0.18008484 -0.15020177 -0.18310529 0.12918301
0.053320624 -0.05230428 -0.01636224 -0.010696626 0.110052735 -0.036614485 -0.08342824 -0.010206341
-0.083077244 0.044060685 0.021694897 -0.07997716 -0.015646592 -0.16771322 -0.063461006 0.061100956
-0.034861416 -0.094240904 -0.027183995 -0.26194075 -0.06112305 -0.123396285 0.004638861 0.045932904
-0.017708799 -0.008139828 -0.03868949 -0.1423308 -0.10510092 -0.013066076 -0.11727547 0.13894734
-0.094548725 1.1928623 -0.029379807 -0.045144867 -0.12041164 -0.07781985 -0.027264059 -0.0345428
00000000: 344c b83d 4957 63bd 70c1 34be d273 3ebe
00000010: e43c b8bc 7bab d5bd 68b7 30be a70d 6cbd
00000020: d268 edbe bc78 a4bc 06ca 33bc 567e 8bbd
00000030: 628d 00bd 4ab7 cebd e5c4 ab3d 361f 87bd
00000040: 6c52 a83b d815 dbbd db0b f0bd b979 023d
00000050: 2968 38be 7ece 19be f47f 3bbe 8d48 043e
00000060: ba66 5a3d 033d 56bd 1b0a 86bc e740 2fbc
00000070: 5463 e13d 12f9 15bd 6ddc aabd 7f38 27bc
00000080: 6724 aabd fa78 343d 7fb9 b13c 11cb a3bd
00000090: 482d 80bc 04bd 2bbe d8f7 81bd ff44 7a3d
000000a0: d8ca 0ebd 6001 c1bd f8b0 debc 191d 86be
000000b0: 2a5c 7abd 31b7 fcbd 9601 983b 2424 3c3d
000000c0: 0b12 91bc ea5c 05bc df78 1ebd 2abf 11be
000000d0: 273f d7bd 1813 56bc 1f2e f0bd 3648 0e3e
000000e0: c3a2 c1bd b6af 983f ecad f0bc d3e9 38bd
000000f0: 619a f6bd 0360 9fbd e058 dfbc c07c 0dbd

4.weight f4 [1, 64]
0.01930895 0.040368833 -0.02093979 0.031456664 0.0028613135 0.027285188 0.04109502 0.09234313
-0.06699544 0.069124095 0.10678685 0.0499186 0.016900271 0.05224739 0.0887106 0.0696993
0.00852138 0.058993205 0.04868146 0.116768554 -0.0036642328 0.023361944 -0.015408918 0.119076
0.05296901 0.060456343 0.12116861 0.07672965 0.0502439 0.06867881 0.030514926 0.10633206
-0.009579219 -0.020045847 0.025411123 0.06423217 0.08578641 0.07677287 0.004908367 0.09639676
0.053719077 -0.003228739 0.02563721 -0.021922689 0.003835395 0.041651078 0.1012223 0.036304858
-0.100920364 0.014932748 -0.01826448 0.051651105 0.010015152 -0.016754895 0.03880421 0.1022894
0.07913199 0.123830214 -0.002803132 0.017904937 0.023983173 -0.07961835 0.12428258 0.07213335
00000000: ce2d 9e3c ca59 253d ec89 abbc b4d8 003d
00000010: e084 3b3b 3085 df3c 4053 283d 651e bd3d
00000020: e834 89bd ef90 8d3d 10b3 da3d 7277 4c3d
00000030: 7072 8a3c 5c01 563d e7ad b53d 82be 8e3d
00000040: 429d 0b3c dca2 713d 3666 473d 5a24 ef3d
00000050: a023 70bb 8c61 bf3c b075 7cbc 1ede f33d
00000060: 08f6 583d 12a1 773d 4027 f83d 6f24 9d3d
00000070: 8ccc 4d3d 7aa7 8c3d 70fa f93c a0c4 d93d
00000080: 28f2 1cbc 3037 a4bc fd2a d03c 288c 833d
00000090: c9b0 af3d 183b 9d3d 5ed6 a03b aa6b c53d
000000a0: 8908 5c3d 4099 53bb 2005 d23c 3697 b3bc
000000b0: 405b 7b3b 529a 2a3d a34d cf3d 67b4 143d
000000c0: 56af cebd 7ca8 743c 649f 95bc 1c90 533d
000000d0: 9816 243c 9041 89bc 2af1 1e3d 1b7d d13d
000000e0: f40f a23d b29a fd3d c0b4 37bb 60ad 923c
000000f0: 5c78 c43c f20e a3bd de87 fe3d a6ba 933d
